…
Cfg.adi_normal 0
LEN y_tsst: 4340
3 shape x_norm (900, 32, 32, 3)
 x_norm_fn[0:4]= ['S1A5784.178' 'S1A5784.155' 'S1A5784.103' 'S1A5935.219']
new outliers: [1]
len idx_outlier: 16120
shape idx_outlier: (16120,)
idx_outlier[0]: True
NEW len x_outlier: 15220
NEW len x_outlier_fn: 15220
 x_outlier_fn[0:4]= ['S2A5995.18' 'S2A6038.207' 'S2A5878.275' 'S2A5923.19']
 y_outlier[0:10]= [1 1 1 1 1 1 1 1 1 1]
INFO: Random Seed set is  89
xp_outlier shape: (15220, 32, 32, 3)
 xp_outlier_fn[0:4]= ['S2A6061.246' 'S2A5904.8' 'S2A5949.7' 'S2A5901.299']
After RND permutation, xtrain shape: (16120, 32, 32, 3)
_X_test_beforegcn, (16120, 32, 32, 3) 0.77647066 0.0
Data loaded.
DRR build_autoencoder
_________________________________________________________________
Layer (type)                 Output Shape              Param #   
=================================================================
conv2d_1 (Conv2D)            (None, 32, 32, 64)        1792      
_________________________________________________________________
activation_1 (Activation)    (None, 32, 32, 64)        0         
_________________________________________________________________
batch_normalization_1 (Batch (None, 32, 32, 64)        256       
_________________________________________________________________
max_pooling2d_1 (MaxPooling2 (None, 16, 16, 64)        0         
_________________________________________________________________
conv2d_2 (Conv2D)            (None, 16, 16, 32)        18464     
_________________________________________________________________
activation_2 (Activation)    (None, 16, 16, 32)        0         
_________________________________________________________________
batch_normalization_2 (Batch (None, 16, 16, 32)        128       
_________________________________________________________________
max_pooling2d_2 (MaxPooling2 (None, 8, 8, 32)          0         
_________________________________________________________________
conv2d_3 (Conv2D)            (None, 8, 8, 16)          4624      
_________________________________________________________________
activation_3 (Activation)    (None, 8, 8, 16)          0         
_________________________________________________________________
batch_normalization_3 (Batch (None, 8, 8, 16)          64        
_________________________________________________________________
max_pooling2d_3 (MaxPooling2 (None, 4, 4, 16)          0         
_________________________________________________________________
flatten_1 (Flatten)          (None, 256)               0         
_________________________________________________________________
dense_1 (Dense)              (None, 256)               65792     
_________________________________________________________________
activation_4 (Activation)    (None, 256)               0         
_________________________________________________________________
batch_normalization_4 (Batch (None, 256)               1024      
_________________________________________________________________
dense_2 (Dense)              (None, 128)               32896     
_________________________________________________________________
activation_5 (Activation)    (None, 128)               0         
_________________________________________________________________
batch_normalization_5 (Batch (None, 128)               512       
_________________________________________________________________
dense_3 (Dense)              (None, 256)               33024     
_________________________________________________________________
activation_6 (Activation)    (None, 256)               0         
_________________________________________________________________
batch_normalization_6 (Batch (None, 256)               1024      
_________________________________________________________________
reshape_1 (Reshape)          (None, 4, 4, 16)          0         
_________________________________________________________________
conv2d_4 (Conv2D)            (None, 4, 4, 16)          2320      
_________________________________________________________________
activation_7 (Activation)    (None, 4, 4, 16)          0         
_________________________________________________________________
batch_normalization_7 (Batch (None, 4, 4, 16)          64        
_________________________________________________________________
up_sampling2d_1 (UpSampling2 (None, 8, 8, 16)          0         
_________________________________________________________________
conv2d_5 (Conv2D)            (None, 8, 8, 32)          4640      
_________________________________________________________________
activation_8 (Activation)    (None, 8, 8, 32)          0         
_________________________________________________________________
batch_normalization_8 (Batch (None, 8, 8, 32)          128       
_________________________________________________________________
up_sampling2d_2 (UpSampling2 (None, 16, 16, 32)        0         
_________________________________________________________________
conv2d_6 (Conv2D)            (None, 16, 16, 64)        18496     
_________________________________________________________________
activation_9 (Activation)    (None, 16, 16, 64)        0         
_________________________________________________________________
batch_normalization_9 (Batch (None, 16, 16, 64)        256       
_________________________________________________________________
up_sampling2d_3 (UpSampling2 (None, 32, 32, 64)        0         
_________________________________________________________________
conv2d_7 (Conv2D)            (None, 32, 32, 3)         1731      
_________________________________________________________________
activation_10 (Activation)   (None, 32, 32, 3)         0         
=================================================================
Total params: 187,235
Trainable params: 185,507
Non-trainable params: 1,728
_________________________________________________________________
[INFO:]DRR Autoencoder summary  None
After build_autoencoder
Out learner.load_data 
[INFO:] Assertions of memory muted
Out learner.check_all 
RCAE_AD.DATASET initial: adi
ADI_DataLoader:adi_normal is=  0
…
